deep-learning/my_iris_model.pt (torch, 3485 bytes, 6 tensors)

fc1.weight f4 [8, 4]
00000000: 80f0 86be baf8 8bbe 18df 993e 3c60 a9be
00000010: c0ae 70be 8242 8b3e 1a5e bebe 6419 7b3e
00000020: 7d7b 3a3e d67c 82be 288b 3a3f 2e1b 693f
00000030: 1803 2c3f 8478 98be 98f9 403e 430f 883f
00000040: fe6d 5a3f bd4b 223f 75e0 77bf ed78 82bf
00000050: 5409 e2be 7aa7 a93e 70b9 31bd 6661 b03e
00000060: 1d13 493d ccec 72be 88ba e7be 971e 103e
00000070: 9842 a4be 4892 e3bd ec2f 983e de66 8bbe
-0.26355362 -0.273382 0.3005302 -0.33081234 -0.23504162 0.2719918 -0.3718117 0.24521405
0.1821117 -0.25485867 0.72868586 0.910571 0.6719222 -0.29779446 0.18845212 1.0629658
0.85324085 0.6339682 -0.9682687 -1.0193154 -0.44147742 0.33135587 -0.043389738 0.3444931
0.049090493 -0.23723143 -0.452595 0.14074169 -0.32082057 -0.11111885 0.2972406 -0.2722692

fc1.bias f4 [8]
00000000: 6061 c8bc 30fc 8abd 29e8 17bf 3213 013e
00000010: ed58 853f 2c3b 40be 9ba3 9b3e cc85 26be
-0.024460495 -0.06786382 -0.59338623 0.12604979 1.0417763 -0.18772572 0.3039826 -0.16261977

fc2.weight f4 [9, 8]
00000000: 3224 153e fecf 153e 9663 a7bd 8e85 d0be
00000010: 4834 7e3e a440 a7bd 018d 763e 7b24 59be
00000020: afc5 13bd 2730 9b3e 1e13 9dbe ec8e 5f3c
00000030: 7823 97bb cab6 9abe 7142 8cbd 4aed a5be
00000040: fa71 9c3d 91e2 733d 6634 423f 0ddc e6bd
00000050: f9fa 5bbf f287 02be ff08 81be fad2 8c3e
00000060: 290a e83d 9d3b b4be 45c7 b9be 06b4 41be
00000070: 72e3 5a3f d9ca d3bd 7ef0 c53e a7be df3d
00000080: 3f18 a3be ad4c 983d 83ea b13e fb75 c73e
00000090: f702 a0bf cfe1 d3bc 4745 6f3e ea4d 003e
000000a0: 7f59 2a3e aa43 993e 7b66 323f 10ba d83e
000000b0: cb75 9bbe 71a0 be3c 484e 423e 0dfc a6bd
000000c0: d294 3e3d 7cff a03b ba93 cf3e 0046 223f
000000d0: b059 a5be c7f6 99be da76 ea3d 9aa1 efbd
000000e0: 0588 0d3d bd24 a4be 1da6 0f3e b545 78be
000000f0: aa37 24bd 6565 9b3e 9541 ad3d f4ee 963e
00000100: c23d 44be 2f66 a8be f7ec 90be 7b01 f8bd
00000110: c87a e1bd 928c c4bc 1e06 4f3e 6fde 9d3e
0.14564589 0.14630124 -0.081732914 -0.40726894 0.24824631 -0.08166626 0.24077226 -0.21205322
-0.036077198 0.30310175 -0.30678648 0.013644915 -0.0046123825 -0.30217582 -0.0684861 -0.324076
0.07638927 0.059542242 0.75861204 -0.1127244 -0.8592983 -0.12747172 -0.25202176 0.27504712
0.11330063 -0.3520173 -0.36284843 -0.1891633 0.85503304 -0.103414245 0.38660043 0.10925036
-0.31854436 0.074365 0.3474923 0.389572 -1.2500905 -0.02586451 0.23366271 0.12529722
0.16635703 0.29934436 0.6968762 0.42329454 -0.30363306 0.023269864 0.18975174 -0.081535436
0.046528645 0.0049132686 0.40542394 0.6338806 -0.3229499 -0.3007109 0.114484504 -0.11700745
0.034553546 -0.3205928 0.14028211 -0.24245341 -0.040092148 0.30350795 0.084597744 0.29479182
-0.19164184 -0.3289046 -0.2830579 -0.121096574 -0.11009747 -0.02399281 0.20217177 0.30833766

fc2.bias f4 [9]
00000000: f399 d8be 3c08 52be 75e0 b4be b17a 8a3e
00000010: c670 06bf 102f d7be a9da 10be afde a0be
00000020: 555a 993e
-0.42304954 -0.20510954 -0.35327497 0.2704673 -0.5251583 -0.42028093 -0.14145912 -0.31419894
0.2995173

out.weight f4 [3, 9]
00000000: ff54 443c 2bb0 d2bd d73c cabe 83bb 5e3f
00000010: 7bbc 3ebd 060e 06bf ba77 18bf 001c 953e
00000020: 96b8 90bd 7443 1bbd 3a1e 81be 2feb 02be
00000030: 4998 3dbf e174 95bf 42b3 0a3f 18d4 1f3f
00000040: f6ea 053d 13f1 13be de15 38be 63e5 833e
00000050: 425a 853f 4901 dbbe 349e 9b3f 7e4c c53e
00000060: f157 6f3e a29e 9ebe 578b 95be
0.011983155 -0.102875076 -0.39499542 0.8700487 -0.046566468 -0.5236515 -0.5955769 0.29122925
-0.07066457 -0.037906125 -0.25218374 -0.12785028 -0.74060494 -1.1676294 0.54179776 0.62433004
0.03269478 -0.14447431 -0.17977092 0.25760946 1.041817 -0.42774418 1.2157655 0.3853492
0.2337339 -0.30980402 -0.2920787

out.bias f4 [3]
00000000: 6f32 4a3f 4313 723f 950a 83bf
0.78983206 0.9456064 -1.0237604
